…
2020-04-08 17:30:36.055958: I tensorflow/core/platform/cpu_feature_guard.cc:142] Your CPU supports instructions that this TensorFlow binary was not compiled to use: AVX AVX2
2020-04-08 17:30:36.145601: I tensorflow/core/common_runtime/process_util.cc:147] Creating new thread pool with default inter op setting: 2. Tune using inter_op_parallelism_threads for best performance.
[INFO] model summary...
Model: "sequential_1"
_________________________________________________________________
Layer (type)                 Output Shape              Param #
=================================================================
conv2d_1 (Conv2D)            (None, 61, 61, 16)        784
_________________________________________________________________
zero_padding2d_1 (ZeroPaddin (None, 63, 63, 16)        0
_________________________________________________________________
conv2d_2 (Conv2D)            (None, 60, 60, 16)        4112
_________________________________________________________________
max_pooling2d_1 (MaxPooling2 (None, 30, 30, 16)        0
_________________________________________________________________
dropout_1 (Dropout)          (None, 30, 30, 16)        0
_________________________________________________________________
zero_padding2d_2 (ZeroPaddin (None, 32, 32, 16)        0
_________________________________________________________________
conv2d_3 (Conv2D)            (None, 30, 30, 32)        4640
_________________________________________________________________
conv2d_4 (Conv2D)            (None, 28, 28, 32)        9248
_________________________________________________________________
max_pooling2d_2 (MaxPooling2 (None, 14, 14, 32)        0
_________________________________________________________________
dropout_2 (Dropout)          (None, 14, 14, 32)        0
_________________________________________________________________
zero_padding2d_3 (ZeroPaddin (None, 16, 16, 32)        0
_________________________________________________________________
conv2d_5 (Conv2D)            (None, 14, 14, 64)        18496
_________________________________________________________________
conv2d_6 (Conv2D)            (None, 12, 12, 128)       73856
_________________________________________________________________
max_pooling2d_3 (MaxPooling2 (None, 6, 6, 128)         0
_________________________________________________________________
dropout_3 (Dropout)          (None, 6, 6, 128)         0
_________________________________________________________________
flatten_1 (Flatten)          (None, 4608)              0
_________________________________________________________________
dense_1 (Dense)              (None, 512)               2359808
_________________________________________________________________
dropout_4 (Dropout)          (None, 512)               0
_________________________________________________________________
dense_2 (Dense)              (None, 15)                7695
=================================================================
Total params: 2,478,639
Trainable params: 2,478,639
Non-trainable params: 0
_________________________________________________________________
[INFO] training network...
Train on 15478 samples, validate on 5160 samples
Epoch 1/20
 - 142s - loss: 1.8489 - accuracy: 0.4019 - val_loss: 1.1606 - val_accuracy: 0.6178

Epoch 2/20
 - 131s - loss: 1.1653 - accuracy: 0.6109 - val_loss: 0.9343 - val_accuracy: 0.6791
…
